INFO:gunpowder.torch.nodes.train:Resuming training from iteration 10000
INFO:gunpowder.torch.nodes.train:Loading model_2024-04-15_12-39-03_3d_sdt_IntWgt_b1_dil1_cilcrop_checkpoint_10000
INFO:gunpowder.torch.nodes.train:Using device cuda
INFO:gunpowder.nodes.precache:starting new set of workers (10, cache size 40)...
child 1
ModuleList(
  (0): ConvPass(
    (conv_pass): Sequential(
      (0): Conv3d(1, 12, kernel_size=(3, 3, 3), stride=(1, 1, 1))
      (1): ReLU()
      (2): Conv3d(12, 12, kernel_size=(3, 3, 3), stride=(1, 1, 1))
      (3): ReLU()
    )
  )
  (1): ConvPass(
    (conv_pass): Sequential(
      (0): Conv3d(12, 60, kernel_size=(3, 3, 3), stride=(1, 1, 1))
      (1): ReLU()
      (2): Conv3d(60, 60, kernel_size=(3, 3, 3), stride=(1, 1, 1))
      (3): ReLU()
    )
  )
  (2): ConvPass(
    (conv_pass): Sequential(
      (0): Conv3d(60, 300, kernel_size=(3, 3, 3), stride=(1, 1, 1))
      (1): ReLU()
      (2): Conv3d(300, 300, kernel_size=(3, 3, 3), stride=(1, 1, 1))
      (3): ReLU()
    )
  )
  (3): ConvPass(
    (conv_pass): Sequential(
      (0): Conv3d(300, 1500, kernel_size=(1, 3, 3), stride=(1, 1, 1))
      (1): ReLU()
      (2): Conv3d(1500, 1500, kernel_size=(1, 3, 3), stride=(1, 1, 1))
      (3): ReLU()
    )
  )
)
child 2
ModuleList(
  (0): Downsample(
    (down): MaxPool3d(kernel_size=(1, 2, 2), stride=(1, 2, 2), padding=0, dilation=1, ceil_mode=False)
  )
  (1): Downsample(
    (down): MaxPool3d(kernel_size=(1, 2, 2), stride=(1, 2, 2), padding=0, dilation=1, ceil_mode=False)
  )
  (2): Downsample(
    (down): MaxPool3d(kernel_size=(2, 2, 2), stride=(2, 2, 2), padding=0, dilation=1, ceil_mode=False)
  )
)
child 3
ModuleList(
  (0): ModuleList(
    (0): Upsample(
      (up): Upsample(scale_factor=(1.0, 2.0, 2.0), mode=nearest)
    )
    (1): Upsample(
      (up): Upsample(scale_factor=(1.0, 2.0, 2.0), mode=nearest)
    )
    (2): Upsample(
      (up): Upsample(scale_factor=(2.0, 2.0, 2.0), mode=nearest)
    )
  )
)
child 4
ModuleList(
  (0): ModuleList(
    (0): ConvPass(
      (conv_pass): Sequential(
        (0): Conv3d(72, 12, kernel_size=(1, 3, 3), stride=(1, 1, 1))
        (1): ReLU()
        (2): Conv3d(12, 12, kernel_size=(1, 3, 3), stride=(1, 1, 1))
        (3): ReLU()
      )
    )
    (1): ConvPass(
      (conv_pass): Sequential(
        (0): Conv3d(360, 60, kernel_size=(3, 3, 3), stride=(1, 1, 1))
        (1): ReLU()
        (2): Conv3d(60, 60, kernel_size=(3, 3, 3), stride=(1, 1, 1))
        (3): ReLU()
      )
    )
    (2): ConvPass(
      (conv_pass): Sequential(
        (0): Conv3d(1800, 300, kernel_size=(3, 3, 3), stride=(1, 1, 1))
        (1): ReLU()
        (2): Conv3d(300, 300, kernel_size=(3, 3, 3), stride=(1, 1, 1))
        (3): ReLU()
      )
    )
  )
)
INFO:gunpowder.nodes.generic_train:Train process: iteration=10001 loss=0.117381 time=9.774393
INFO:gunpowder.nodes.snapshot:saving to snapshots/2024-04-15_12-39-03_3d_sdt_IntWgt_b1_dil1_cilcrop/batch_10001.zarr
INFO:gunpowder.nodes.generic_train:Train process: iteration=10002 loss=0.080077 time=0.729945
INFO:gunpowder.nodes.generic_train:Train process: iteration=10003 loss=0.102386 time=0.724882
…
